…
1563/1563 [==============================] - 133s 84ms/step - loss: 1.5613 - accuracy: 0.4582 - val_loss: 1.1515 - val_accuracy: 0.5866 - lr: 0.0010
157/157 - 3s - loss: 1.1112 - accuracy: 0.5972 - 3s/epoch - 18ms/step
Validation accuracy: 0.5971999764442444
Validation loss: 1.1111541986465454
157/157 [==============================] - 3s 18ms/step
Predictions: [6 3 1 ... 6 0 7]
Model: "sequential_3"
_________________________________________________________________
 Layer (type)                Output Shape              Param #
=================================================================
 conv2d_6 (Conv2D)           (None, 30, 30, 32)        896
 conv2d_7 (Conv2D)           (None, 28, 28, 32)        9248
 batch_normalization_6 (Batc  (None, 28, 28, 32)       128
 hNormalization)
 conv2d_8 (Conv2D)           (None, 26, 26, 64)        18496
 max_pooling2d_6 (MaxPooling  (None, 13, 13, 64)       0
 2D)
 batch_normalization_7 (Batc  (None, 13, 13, 64)       256
 hNormalization)
 dropout (Dropout)           (None, 13, 13, 64)        0
 conv2d_9 (Conv2D)           (None, 9, 9, 128)         204928
 conv2d_10 (Conv2D)          (None, 3, 3, 128)         409728
 batch_normalization_8 (Batc  (None, 3, 3, 128)        512
 hNormalization)
 flatten_3 (Flatten)         (None, 1152)              0
 dense_6 (Dense)             (None, 256)               295168
 dropout_1 (Dropout)         (None, 256)               0
 dense_7 (Dense)             (None, 128)               32896
 dense_8 (Dense)             (None, 10)                1290
=================================================================
Total params: 973,546
Trainable params: 973,098
Non-trainable params: 448
_________________________________________________________________