…
1563/1563 [==============================] - 21s 13ms/step - loss: 0.4454 - accuracy: 0.8440 - val_loss: 1.0483 - val_accuracy: 0.6918 - lr: 8.0000e-04
Epoch 17/20










1563/1563 [==============================] - 21s 13ms/step - loss: 0.4224 - accuracy: 0.8509 - val_loss: 1.0779 - val_accuracy: 0.6866 - lr: 8.0000e-04
157/157 - 1s - loss: 1.0280 - accuracy: 0.7028 - 620ms/epoch - 4ms/step
Test accuracy: 0.7027999758720398
Test loss: 1.0279796123504639
Model: "sequential_1"
_________________________________________________________________
 Layer (type)                Output Shape              Param #
=================================================================
 conv2d_2 (Conv2D)           (None, 30, 30, 32)        896
 max_pooling2d_2 (MaxPooling  (None, 15, 15, 32)       0
 2D)
 conv2d_3 (Conv2D)           (None, 13, 13, 64)        18496
 max_pooling2d_3 (MaxPooling  (None, 6, 6, 64)         0
 2D)
 flatten_1 (Flatten)         (None, 2304)              0
 dense_2 (Dense)             (None, 64)                147520
 dense_3 (Dense)             (None, 10)                650
=================================================================
Total params: 167,562
Trainable params: 167,562
Non-trainable params: 0
