…
1563/1563 [==============================] - 49s 31ms/step - loss: 1.2929 - accuracy: 0.5573 - val_loss: 1.5070 - val_accuracy: 0.5182 - lr: 0.0010
157/157 - 1s - loss: 1.4641 - accuracy: 0.5196 - 1s/epoch - 7ms/step
Validation accuracy: 0.519599974155426
Validation loss: 1.4640564918518066
157/157 [==============================] - 1s 7ms/step
Predictions: [6 6 1 ... 6 0 4]
Model: "sequential"
_________________________________________________________________
 Layer (type)                Output Shape              Param #
=================================================================
 conv2d (Conv2D)             (None, 30, 30, 32)        896
 batch_normalization (BatchN  (None, 30, 30, 32)       128
 ormalization)
 max_pooling2d (MaxPooling2D  (None, 15, 15, 32)       0
 )
 batch_normalization_1 (Batc  (None, 15, 15, 32)       128
 hNormalization)
 conv2d_1 (Conv2D)           (None, 13, 13, 64)        18496
 batch_normalization_2 (Batc  (None, 13, 13, 64)       256
 hNormalization)
 max_pooling2d_1 (MaxPooling  (None, 6, 6, 64)         0
 2D)
 batch_normalization_3 (Batc  (None, 6, 6, 64)         256
 hNormalization)
 flatten (Flatten)           (None, 2304)              0
 batch_normalization_4 (Batc  (None, 2304)             9216
 hNormalization)
 dense (Dense)               (None, 512)               1180160
 batch_normalization_5 (Batc  (None, 512)              2048
 hNormalization)
 dense_1 (Dense)             (None, 10)                5130
=================================================================
Total params: 1,216,714
Trainable params: 1,210,698
Non-trainable params: 6,016
