…
1563/1563 [==============================] - 135s 85ms/step - loss: 1.5751 - accuracy: 0.4529 - val_loss: 1.1715 - val_accuracy: 0.5816 - lr: 0.0010
157/157 - 3s - loss: 1.1410 - accuracy: 0.5978 - 3s/epoch - 17ms/step
Validation accuracy: 0.5978000164031982
Validation loss: 1.1409729719161987
157/157 [==============================] - 3s 18ms/step
Predictions: [9 8 8 ... 9 0 7]
Model: "sequential"
_________________________________________________________________
 Layer (type)                Output Shape              Param #
=================================================================
 conv2d (Conv2D)             (None, 30, 30, 32)        896
 conv2d_1 (Conv2D)           (None, 28, 28, 32)        9248
 batch_normalization (BatchN  (None, 28, 28, 32)       128
 ormalization)
 conv2d_2 (Conv2D)           (None, 26, 26, 64)        18496
 max_pooling2d (MaxPooling2D  (None, 13, 13, 64)       0
 )
 batch_normalization_1 (Batc  (None, 13, 13, 64)       256
 hNormalization)
 dropout (Dropout)           (None, 13, 13, 64)        0
 conv2d_3 (Conv2D)           (None, 9, 9, 128)         204928
 conv2d_4 (Conv2D)           (None, 3, 3, 128)         409728
 batch_normalization_2 (Batc  (None, 3, 3, 128)        512
 hNormalization)
 flatten (Flatten)           (None, 1152)              0
 dense (Dense)               (None, 256)               295168
 dropout_1 (Dropout)         (None, 256)               0
 dense_1 (Dense)             (None, 128)               32896
 dense_2 (Dense)             (None, 10)                1290
=================================================================
Total params: 973,546
Trainable params: 973,098
Non-trainable params: 448
_________________________________________________________________