…
781/782 [============================>.] - ETA: 0s - loss: 0.5353 - accuracy: 0.8182INFO:tensorflow:Assets written to: D:\10.semester\NN\neural-networks\2.zadanie\src\wandb\run-20230412_224936-kp1fom2z\files\model-best\assets
782/782 [==============================] - 45s 58ms/step - loss: 0.5353 - accuracy: 0.8182 - val_loss: 0.8128 - val_accuracy: 0.7430 - lr: 0.0010
157/157 - 1s - loss: 0.7438 - accuracy: 0.7620 - 1s/epoch - 8ms/step
Test accuracy: 0.7620000243186951
Test loss: 0.7438197731971741
Model: "sequential_1"
_________________________________________________________________
 Layer (type)                Output Shape              Param #
=================================================================
 conv2d_3 (Conv2D)           (None, 16, 16, 32)        896
 conv2d_4 (Conv2D)           (None, 16, 16, 32)        9248
 conv2d_5 (Conv2D)           (None, 16, 16, 32)        9248
 batch_normalization_4 (Batc  (None, 16, 16, 32)       128
 hNormalization)
 max_pooling2d (MaxPooling2D  (None, 8, 8, 32)         0
 )
 dropout_1 (Dropout)         (None, 8, 8, 32)          0
 conv2d_6 (Conv2D)           (None, 4, 4, 64)          18496
 conv2d_7 (Conv2D)           (None, 4, 4, 64)          36928
 conv2d_8 (Conv2D)           (None, 4, 4, 64)          36928
 batch_normalization_5 (Batc  (None, 4, 4, 64)         256
 hNormalization)
 dropout_2 (Dropout)         (None, 4, 4, 64)          0
 conv2d_9 (Conv2D)           (None, 2, 2, 128)         73856
 conv2d_10 (Conv2D)          (None, 2, 2, 128)         147584
 conv2d_11 (Conv2D)          (None, 2, 2, 128)         147584
 batch_normalization_6 (Batc  (None, 2, 2, 128)        512
 hNormalization)
 max_pooling2d_1 (MaxPooling  (None, 1, 1, 128)        0
 2D)
 dropout_3 (Dropout)         (None, 1, 1, 128)         0
 flatten_1 (Flatten)         (None, 128)               0
 dense_2 (Dense)             (None, 256)               33024
 batch_normalization_7 (Batc  (None, 256)              1024
 hNormalization)
 dense_3 (Dense)             (None, 64)                16448
 dropout_4 (Dropout)         (None, 64)                0
 dense_4 (Dense)             (None, 10)                650
=================================================================
Total params: 532,810
Trainable params: 531,850
Non-trainable params: 960
_________________________________________________________________