…
1563/1563 [==============================] - 225s 144ms/step - loss: 0.0400 - accuracy: 0.9857 - val_loss: 0.9807 - val_accuracy: 0.8040 - lr: 8.0000e-04
157/157 - 6s - loss: 0.8417 - accuracy: 0.8280 - 6s/epoch - 35ms/step
Test accuracy: 0.828000009059906
Test loss: 0.8416624069213867
Model: "model_1"
__________________________________________________________________________________________________
 Layer (type)                   Output Shape         Param #     Connected to
==================================================================================================
 input_2 (InputLayer)           [(None, 32, 32, 3)]  0           []
 conv2d_35 (Conv2D)             (None, 32, 32, 64)   1792        ['input_2[0][0]']
 batch_normalization_22 (BatchN  (None, 32, 32, 64)  256         ['conv2d_35[0][0]']
 ormalization)
 max_pooling2d_11 (MaxPooling2D  (None, 16, 16, 64)  0           ['batch_normalization_22[0][0]']
 )
 conv2d_36 (Conv2D)             (None, 16, 16, 64)   36928       ['max_pooling2d_11[0][0]']
 batch_normalization_23 (BatchN  (None, 16, 16, 64)  256         ['conv2d_36[0][0]']
 ormalization)
 conv2d_37 (Conv2D)             (None, 16, 16, 64)   36928       ['batch_normalization_23[0][0]']
 batch_normalization_24 (BatchN  (None, 16, 16, 64)  256         ['conv2d_37[0][0]']
 ormalization)
 add_3 (Add)                    (None, 16, 16, 64)   0           ['batch_normalization_24[0][0]',
                                                                  'max_pooling2d_11[0][0]']
 activation_3 (Activation)      (None, 16, 16, 64)   0           ['add_3[0][0]']
 conv2d_38 (Conv2D)             (None, 16, 16, 128)  73856       ['activation_3[0][0]']
 batch_normalization_25 (BatchN  (None, 16, 16, 128)  512        ['conv2d_38[0][0]']
 ormalization)
 max_pooling2d_12 (MaxPooling2D  (None, 8, 8, 128)   0           ['batch_normalization_25[0][0]']
 )
 conv2d_39 (Conv2D)             (None, 8, 8, 128)    147584      ['max_pooling2d_12[0][0]']
 batch_normalization_26 (BatchN  (None, 8, 8, 128)   512         ['conv2d_39[0][0]']
 ormalization)
 conv2d_40 (Conv2D)             (None, 8, 8, 128)    147584      ['batch_normalization_26[0][0]']
 batch_normalization_27 (BatchN  (None, 8, 8, 128)   512         ['conv2d_40[0][0]']
 ormalization)
 add_4 (Add)                    (None, 8, 8, 128)    0           ['batch_normalization_27[0][0]',
                                                                  'max_pooling2d_12[0][0]']
 activation_4 (Activation)      (None, 8, 8, 128)    0           ['add_4[0][0]']
 conv2d_41 (Conv2D)             (None, 8, 8, 256)    295168      ['activation_4[0][0]']
 batch_normalization_28 (BatchN  (None, 8, 8, 256)   1024        ['conv2d_41[0][0]']
 ormalization)
 max_pooling2d_13 (MaxPooling2D  (None, 4, 4, 256)   0           ['batch_normalization_28[0][0]']
 )
 conv2d_42 (Conv2D)             (None, 4, 4, 256)    590080      ['max_pooling2d_13[0][0]']
 batch_normalization_29 (BatchN  (None, 4, 4, 256)   1024        ['conv2d_42[0][0]']
 ormalization)
 conv2d_43 (Conv2D)             (None, 4, 4, 256)    590080      ['batch_normalization_29[0][0]']
 batch_normalization_30 (BatchN  (None, 4, 4, 256)   1024        ['conv2d_43[0][0]']
 ormalization)
 add_5 (Add)                    (None, 4, 4, 256)    0           ['batch_normalization_30[0][0]',
                                                                  'max_pooling2d_13[0][0]']
 activation_5 (Activation)      (None, 4, 4, 256)    0           ['add_5[0][0]']
 global_average_pooling2d (Glob  (None, 256)         0           ['activation_5[0][0]']
 alAveragePooling2D)
 dense_15 (Dense)               (None, 10)           2570        ['global_average_pooling2d[0][0]'
                                                                 ]
==================================================================================================
Total params: 1,927,946
Trainable params: 1,925,258
Non-trainable params: 2,688
__________________________________________________________________________________________________