…
782/782 [==============================] - 56s 72ms/step - loss: 0.0479 - accuracy: 0.9834 - val_loss: 1.8705 - val_accuracy: 0.7190 - lr: 8.0000e-04
Epoch 14/20




























782/782 [==============================] - 57s 72ms/step - loss: 0.0415 - accuracy: 0.9865 - val_loss: 1.9403 - val_accuracy: 0.7250 - lr: 8.0000e-04
157/157 - 1s - loss: 1.8322 - accuracy: 0.7402 - 1s/epoch - 8ms/step
Test accuracy: 0.7401999831199646
Test loss: 1.8322135210037231
Model: "sequential_1"
_________________________________________________________________
 Layer (type)                Output Shape              Param #
=================================================================
 conv2d_11 (Conv2D)          (None, 30, 30, 32)        896
 conv2d_12 (Conv2D)          (None, 28, 28, 64)        18496
 max_pooling2d_3 (MaxPooling  (None, 14, 14, 64)       0
 2D)
 conv2d_13 (Conv2D)          (None, 7, 7, 128)         73856
 flatten_1 (Flatten)         (None, 6272)              0
 dense_3 (Dense)             (None, 256)               1605888
 dense_4 (Dense)             (None, 10)                2570
=================================================================
Total params: 1,701,706
Trainable params: 1,701,706
Non-trainable params: 0
_________________________________________________________________