…
157/157 - 7s - loss: 1.1442 - accuracy: 0.5936 - 7s/epoch - 46ms/step
Validation accuracy: 0.5935999751091003
Validation loss: 1.1442221403121948

157/157 [==============================] - 7s 44ms/step
Predictions: [1 5 1 ... 3 0 7]
Model: "model"
__________________________________________________________________________________________________
 Layer (type)                   Output Shape         Param #     Connected to
==================================================================================================
 input_1 (InputLayer)           [(None, 32, 32, 3)]  0           []
 conv2d_11 (Conv2D)             (None, 30, 30, 32)   896         ['input_1[0][0]']
 conv2d_12 (Conv2D)             (None, 28, 28, 32)   9248        ['conv2d_11[0][0]']
 batch_normalization_9 (BatchNo  (None, 28, 28, 32)  128         ['conv2d_12[0][0]']
 rmalization)
 conv2d_13 (Conv2D)             (None, 28, 28, 32)   9248        ['batch_normalization_9[0][0]']
 conv2d_14 (Conv2D)             (None, 28, 28, 32)   9248        ['conv2d_13[0][0]']
 batch_normalization_10 (BatchN  (None, 28, 28, 32)  128         ['conv2d_14[0][0]']
 ormalization)
 add (Add)                      (None, 28, 28, 32)   0           ['batch_normalization_10[0][0]',
                                                                  'batch_normalization_9[0][0]']
 activation (Activation)        (None, 28, 28, 32)   0           ['add[0][0]']
 conv2d_15 (Conv2D)             (None, 28, 28, 32)   9248        ['activation[0][0]']
 conv2d_16 (Conv2D)             (None, 28, 28, 32)   9248        ['conv2d_15[0][0]']
 batch_normalization_11 (BatchN  (None, 28, 28, 32)  128         ['conv2d_16[0][0]']
 ormalization)
 add_1 (Add)                    (None, 28, 28, 32)   0           ['batch_normalization_11[0][0]',
                                                                  'activation[0][0]']
 activation_1 (Activation)      (None, 28, 28, 32)   0           ['add_1[0][0]']
 conv2d_17 (Conv2D)             (None, 26, 26, 64)   18496       ['activation_1[0][0]']
 max_pooling2d_7 (MaxPooling2D)  (None, 13, 13, 64)  0           ['conv2d_17[0][0]']
 batch_normalization_12 (BatchN  (None, 13, 13, 64)  256         ['max_pooling2d_7[0][0]']
 ormalization)
 dropout_2 (Dropout)            (None, 13, 13, 64)   0           ['batch_normalization_12[0][0]']
 conv2d_18 (Conv2D)             (None, 13, 13, 64)   102464      ['dropout_2[0][0]']
 conv2d_19 (Conv2D)             (None, 13, 13, 64)   102464      ['conv2d_18[0][0]']
 batch_normalization_13 (BatchN  (None, 13, 13, 64)  256         ['conv2d_19[0][0]']
 ormalization)
 add_2 (Add)                    (None, 13, 13, 64)   0           ['batch_normalization_13[0][0]',
                                                                  'dropout_2[0][0]']
 activation_2 (Activation)      (None, 13, 13, 64)   0           ['add_2[0][0]']
 conv2d_20 (Conv2D)             (None, 9, 9, 128)    204928      ['activation_2[0][0]']
 conv2d_21 (Conv2D)             (None, 3, 3, 128)    409728      ['conv2d_20[0][0]']
 batch_normalization_14 (BatchN  (None, 3, 3, 128)   512         ['conv2d_21[0][0]']
 ormalization)
 flatten_4 (Flatten)            (None, 1152)         0           ['batch_normalization_14[0][0]']
 dense_9 (Dense)                (None, 256)          295168      ['flatten_4[0][0]']
 dropout_3 (Dropout)            (None, 256)          0           ['dense_9[0][0]']
 dense_10 (Dense)               (None, 128)          32896       ['dropout_3[0][0]']
 dense_11 (Dense)               (None, 10)           1290        ['dense_10[0][0]']
==================================================================================================
Total params: 1,215,978
Trainable params: 1,215,274
Non-trainable params: 704
__________________________________________________________________________________________________