…
1563/1563 [==============================] - 34s 22ms/step - loss: 0.0575 - accuracy: 0.9813 - val_loss: 1.8174 - val_accuracy: 0.7020 - lr: 8.0000e-04
Epoch 13/20
















1563/1563 [==============================] - 35s 22ms/step - loss: 0.0607 - accuracy: 0.9800 - val_loss: 1.8540 - val_accuracy: 0.7094 - lr: 8.0000e-04
157/157 - 1s - loss: 1.6917 - accuracy: 0.7266 - 739ms/epoch - 5ms/step
Test accuracy: 0.7265999913215637
Test loss: 1.6917054653167725
Model: "sequential"
_________________________________________________________________
 Layer (type)                Output Shape              Param #
=================================================================
 conv2d (Conv2D)             (None, 30, 30, 32)        896
 max_pooling2d (MaxPooling2D  (None, 15, 15, 32)       0
 )
 conv2d_1 (Conv2D)           (None, 13, 13, 64)        18496
 max_pooling2d_1 (MaxPooling  (None, 6, 6, 64)         0
 2D)
 flatten (Flatten)           (None, 2304)              0
 dense (Dense)               (None, 512)               1180160
 dense_1 (Dense)             (None, 10)                5130
=================================================================
Total params: 1,204,682
Trainable params: 1,204,682
Non-trainable params: 0
_________________________________________________________________