…
782/782 [==============================] - 285s 365ms/step - loss: 0.2020 - accuracy: 0.9286 - val_loss: 0.6166 - val_accuracy: 0.8256 - lr: 8.0000e-04
157/157 - 8s - loss: 0.5287 - accuracy: 0.8444 - 8s/epoch - 49ms/step
Test accuracy: 0.8443999886512756
Test loss: 0.5286594033241272
Model: "model"
__________________________________________________________________________________________________
 Layer (type)                   Output Shape         Param #     Connected to
==================================================================================================
 input_1 (InputLayer)           [(None, 32, 32, 3)]  0           []
 conv2d_21 (Conv2D)             (None, 30, 30, 32)   896         ['input_1[0][0]']
 conv2d_22 (Conv2D)             (None, 28, 28, 32)   9248        ['conv2d_21[0][0]']
 batch_normalization_13 (BatchN  (None, 28, 28, 32)  128         ['conv2d_22[0][0]']
 ormalization)
 conv2d_23 (Conv2D)             (None, 28, 28, 32)   9248        ['batch_normalization_13[0][0]']
 conv2d_24 (Conv2D)             (None, 28, 28, 32)   9248        ['conv2d_23[0][0]']
 batch_normalization_14 (BatchN  (None, 28, 28, 32)  128         ['conv2d_24[0][0]']
 ormalization)
 add (Add)                      (None, 28, 28, 32)   0           ['batch_normalization_14[0][0]',
                                                                  'batch_normalization_13[0][0]']
 activation (Activation)        (None, 28, 28, 32)   0           ['add[0][0]']
 conv2d_25 (Conv2D)             (None, 28, 28, 32)   9248        ['activation[0][0]']
 conv2d_26 (Conv2D)             (None, 28, 28, 32)   9248        ['conv2d_25[0][0]']
 batch_normalization_15 (BatchN  (None, 28, 28, 32)  128         ['conv2d_26[0][0]']
 ormalization)
 add_1 (Add)                    (None, 28, 28, 32)   0           ['batch_normalization_15[0][0]',
                                                                  'activation[0][0]']
 activation_1 (Activation)      (None, 28, 28, 32)   0           ['add_1[0][0]']
 conv2d_27 (Conv2D)             (None, 26, 26, 64)   18496       ['activation_1[0][0]']
 max_pooling2d_7 (MaxPooling2D)  (None, 13, 13, 64)  0           ['conv2d_27[0][0]']
 batch_normalization_16 (BatchN  (None, 13, 13, 64)  256         ['max_pooling2d_7[0][0]']
 ormalization)
 dropout_6 (Dropout)            (None, 13, 13, 64)   0           ['batch_normalization_16[0][0]']
 conv2d_28 (Conv2D)             (None, 13, 13, 64)   102464      ['dropout_6[0][0]']
 conv2d_29 (Conv2D)             (None, 13, 13, 64)   102464      ['conv2d_28[0][0]']
 batch_normalization_17 (BatchN  (None, 13, 13, 64)  256         ['conv2d_29[0][0]']
 ormalization)
 add_2 (Add)                    (None, 13, 13, 64)   0           ['batch_normalization_17[0][0]',
                                                                  'dropout_6[0][0]']
 activation_2 (Activation)      (None, 13, 13, 64)   0           ['add_2[0][0]']
 conv2d_30 (Conv2D)             (None, 9, 9, 128)    204928      ['activation_2[0][0]']
 conv2d_31 (Conv2D)             (None, 3, 3, 128)    409728      ['conv2d_30[0][0]']
 batch_normalization_18 (BatchN  (None, 3, 3, 128)   512         ['conv2d_31[0][0]']
 ormalization)
 flatten_4 (Flatten)            (None, 1152)         0           ['batch_normalization_18[0][0]']
 dense_10 (Dense)               (None, 256)          295168      ['flatten_4[0][0]']
 dropout_7 (Dropout)            (None, 256)          0           ['dense_10[0][0]']
 dense_11 (Dense)               (None, 128)          32896       ['dropout_7[0][0]']
 dense_12 (Dense)               (None, 10)           1290        ['dense_11[0][0]']
==================================================================================================
Total params: 1,215,978
Trainable params: 1,215,274
Non-trainable params: 704
__________________________________________________________________________________________________