…
1563/1563 [==============================] - 30s 19ms/step - loss: 0.1745 - accuracy: 0.9380 - val_loss: 1.2861 - val_accuracy: 0.7016 - lr: 8.0000e-04
Epoch 16/20














1563/1563 [==============================] - 29s 19ms/step - loss: 0.1631 - accuracy: 0.9419 - val_loss: 1.2980 - val_accuracy: 0.7036 - lr: 8.0000e-04
157/157 - 1s - loss: 1.2001 - accuracy: 0.7222 - 697ms/epoch - 4ms/step
Test accuracy: 0.7221999764442444
Test loss: 1.2000718116760254
Model: "sequential"
_________________________________________________________________
 Layer (type)                Output Shape              Param #
=================================================================
 conv2d (Conv2D)             (None, 16, 16, 32)        896
 batch_normalization (BatchN  (None, 16, 16, 32)       128
 ormalization)
 dropout (Dropout)           (None, 16, 16, 32)        0
 conv2d_1 (Conv2D)           (None, 8, 8, 64)          18496
 batch_normalization_1 (Batc  (None, 8, 8, 64)         256
 hNormalization)
 conv2d_2 (Conv2D)           (None, 4, 4, 64)          36928
 batch_normalization_2 (Batc  (None, 4, 4, 64)         256
 hNormalization)
 flatten (Flatten)           (None, 1024)              0
 dense (Dense)               (None, 512)               524800
 batch_normalization_3 (Batc  (None, 512)              2048
 hNormalization)
 dense_1 (Dense)             (None, 10)                5130
=================================================================
Total params: 588,938
Trainable params: 587,594
Non-trainable params: 1,344
_________________________________________________________________