…
782/782 [==============================] - ETA: 0s - loss: 0.4642 - accuracy: 0.8465INFO:tensorflow:Assets written to: D:\10.semester\NN\neural-networks\2.zadanie\src\wandb\run-20230412_194235-vahfuawd\files\model-best\assets
782/782 [==============================] - 529s 676ms/step - loss: 0.4642 - accuracy: 0.8465 - val_loss: 0.5848 - val_accuracy: 0.8120 - lr: 0.0010
157/157 - 9s - loss: 0.5547 - accuracy: 0.8178 - 9s/epoch - 59ms/step
Test accuracy: 0.817799985408783
Test loss: 0.5547261238098145
Model: "sequential_6"
_________________________________________________________________
 Layer (type)                Output Shape              Param #
=================================================================
 conv2d_50 (Conv2D)          (None, 32, 32, 16)        448
 batch_normalization_38 (Bat  (None, 32, 32, 16)       64
 chNormalization)
 conv2d_51 (Conv2D)          (None, 32, 32, 16)        2320
 batch_normalization_39 (Bat  (None, 32, 32, 16)       64
 chNormalization)
 conv2d_52 (Conv2D)          (None, 32, 32, 16)        2320
 batch_normalization_40 (Bat  (None, 32, 32, 16)       64
 chNormalization)
 conv2d_53 (Conv2D)          (None, 32, 32, 16)        2320
 max_pooling2d_17 (MaxPoolin  (None, 16, 16, 16)       0
 g2D)
 dropout_16 (Dropout)        (None, 16, 16, 16)        0
 conv2d_54 (Conv2D)          (None, 16, 16, 32)        12832
 batch_normalization_41 (Bat  (None, 16, 16, 32)       128
 chNormalization)
 conv2d_55 (Conv2D)          (None, 16, 16, 32)        25632
 batch_normalization_42 (Bat  (None, 16, 16, 32)       128
 chNormalization)
 conv2d_56 (Conv2D)          (None, 16, 16, 32)        25632
 batch_normalization_43 (Bat  (None, 16, 16, 32)       128
 chNormalization)
 conv2d_57 (Conv2D)          (None, 16, 16, 32)        25632
 max_pooling2d_18 (MaxPoolin  (None, 8, 8, 32)         0
 g2D)
 dropout_17 (Dropout)        (None, 8, 8, 32)          0
 conv2d_58 (Conv2D)          (None, 8, 8, 128)         200832
 conv2d_59 (Conv2D)          (None, 8, 8, 128)         802944
 batch_normalization_44 (Bat  (None, 8, 8, 128)        512
 chNormalization)
 conv2d_60 (Conv2D)          (None, 8, 8, 128)         802944
 conv2d_61 (Conv2D)          (None, 8, 8, 128)         802944
 max_pooling2d_19 (MaxPoolin  (None, 4, 4, 128)        0
 g2D)
 dropout_18 (Dropout)        (None, 4, 4, 128)         0
 flatten_7 (Flatten)         (None, 2048)              0
 dense_18 (Dense)            (None, 128)               262272
 batch_normalization_45 (Bat  (None, 128)              512
 chNormalization)
 dropout_19 (Dropout)        (None, 128)               0
 dense_19 (Dense)            (None, 10)                1290
=================================================================
Total params: 2,971,962
Trainable params: 2,971,162
Non-trainable params: 800
_________________________________________________________________