…
782/782 [==============================] - 124s 158ms/step - loss: 0.3502 - accuracy: 0.8783 - val_loss: 0.4735 - val_accuracy: 0.8498 - lr: 0.0010
Epoch 20/20























































782/782 [==============================] - 121s 154ms/step - loss: 0.3400 - accuracy: 0.8826 - val_loss: 0.5613 - val_accuracy: 0.8214 - lr: 0.0010
157/157 - 3s - loss: 0.5235 - accuracy: 0.8316 - 3s/epoch - 19ms/step
Test accuracy: 0.83160001039505
Test loss: 0.5234969854354858
Model: "sequential_5"
_________________________________________________________________
 Layer (type)                Output Shape              Param #
=================================================================
 conv2d_44 (Conv2D)          (None, 32, 32, 32)        896
 batch_normalization_31 (Bat  (None, 32, 32, 32)       128
 chNormalization)
 conv2d_45 (Conv2D)          (None, 32, 32, 32)        9248
 batch_normalization_32 (Bat  (None, 32, 32, 32)       128
 chNormalization)
 max_pooling2d_14 (MaxPoolin  (None, 16, 16, 32)       0
 g2D)
 dropout_12 (Dropout)        (None, 16, 16, 32)        0
 conv2d_46 (Conv2D)          (None, 16, 16, 64)        18496
 batch_normalization_33 (Bat  (None, 16, 16, 64)       256
 chNormalization)
 conv2d_47 (Conv2D)          (None, 16, 16, 64)        36928
 batch_normalization_34 (Bat  (None, 16, 16, 64)       256
 chNormalization)
 max_pooling2d_15 (MaxPoolin  (None, 8, 8, 64)         0
 g2D)
 dropout_13 (Dropout)        (None, 8, 8, 64)          0
 conv2d_48 (Conv2D)          (None, 8, 8, 128)         73856
 batch_normalization_35 (Bat  (None, 8, 8, 128)        512
 chNormalization)
 conv2d_49 (Conv2D)          (None, 8, 8, 128)         147584
 batch_normalization_36 (Bat  (None, 8, 8, 128)        512
 chNormalization)
 max_pooling2d_16 (MaxPoolin  (None, 4, 4, 128)        0
 g2D)
 dropout_14 (Dropout)        (None, 4, 4, 128)         0
 flatten_6 (Flatten)         (None, 2048)              0
 dense_16 (Dense)            (None, 128)               262272
 batch_normalization_37 (Bat  (None, 128)              512
 chNormalization)
 dropout_15 (Dropout)        (None, 128)               0
 dense_17 (Dense)            (None, 10)                1290
=================================================================
Total params: 552,874
Trainable params: 551,722
Non-trainable params: 1,152
_________________________________________________________________