…
1563/1563 [==============================] - 47s 30ms/step - loss: 0.8820 - accuracy: 0.6991 - val_loss: 0.8852 - val_accuracy: 0.6938 - lr: 0.0010
Epoch 20/20






















1563/1563 [==============================] - 44s 28ms/step - loss: 0.8744 - accuracy: 0.7021 - val_loss: 0.8689 - val_accuracy: 0.7044 - lr: 0.0010
157/157 - 1s - loss: 0.8180 - accuracy: 0.7210 - 1s/epoch - 8ms/step
Test accuracy: 0.7210000157356262
Test loss: 0.817970335483551
Model: "sequential_4"
_________________________________________________________________
 Layer (type)                Output Shape              Param #
=================================================================
 conv2d_32 (Conv2D)          (None, 30, 30, 32)        896
 batch_normalization_19 (Bat  (None, 30, 30, 32)       128
 chNormalization)
 max_pooling2d_8 (MaxPooling  (None, 15, 15, 32)       0
 2D)
 dropout_8 (Dropout)         (None, 15, 15, 32)        0
 conv2d_33 (Conv2D)          (None, 13, 13, 64)        18496
 batch_normalization_20 (Bat  (None, 13, 13, 64)       256
 chNormalization)
 max_pooling2d_9 (MaxPooling  (None, 6, 6, 64)         0
 2D)
 dropout_9 (Dropout)         (None, 6, 6, 64)          0
 conv2d_34 (Conv2D)          (None, 4, 4, 128)         73856
 batch_normalization_21 (Bat  (None, 4, 4, 128)        512
 chNormalization)
 max_pooling2d_10 (MaxPoolin  (None, 2, 2, 128)        0
 g2D)
 dropout_10 (Dropout)        (None, 2, 2, 128)         0
 flatten_5 (Flatten)         (None, 512)               0
 dense_13 (Dense)            (None, 64)                32832
 dropout_11 (Dropout)        (None, 64)                0
 dense_14 (Dense)            (None, 10)                650
=================================================================
Total params: 127,626
Trainable params: 127,178
Non-trainable params: 448
_________________________________________________________________