…
Epoch 20/20





























































1563/1563 [==============================] - 123s 79ms/step - loss: 0.4657 - accuracy: 0.8366 - val_loss: 0.6342 - val_accuracy: 0.7942 - lr: 0.0010
157/157 - 3s - loss: 0.5782 - accuracy: 0.8086 - 3s/epoch - 18ms/step
Test accuracy: 0.8086000084877014
Test loss: 0.5781527757644653
Model: "sequential_3"
_________________________________________________________________
 Layer (type)                Output Shape              Param #
=================================================================
 conv2d_16 (Conv2D)          (None, 30, 30, 32)        896
 conv2d_17 (Conv2D)          (None, 28, 28, 32)        9248
 batch_normalization_10 (Bat  (None, 28, 28, 32)       128
 chNormalization)
 conv2d_18 (Conv2D)          (None, 26, 26, 64)        18496
 max_pooling2d_6 (MaxPooling  (None, 13, 13, 64)       0
 2D)
 batch_normalization_11 (Bat  (None, 13, 13, 64)       256
 chNormalization)
 dropout_4 (Dropout)         (None, 13, 13, 64)        0
 conv2d_19 (Conv2D)          (None, 9, 9, 128)         204928
 conv2d_20 (Conv2D)          (None, 3, 3, 128)         409728
 batch_normalization_12 (Bat  (None, 3, 3, 128)        512
 chNormalization)
 flatten_3 (Flatten)         (None, 1152)              0
 dense_7 (Dense)             (None, 256)               295168
 dropout_5 (Dropout)         (None, 256)               0
 dense_8 (Dense)             (None, 128)               32896
 dense_9 (Dense)             (None, 10)                1290
=================================================================
Total params: 973,546
Trainable params: 973,098
Non-trainable params: 448
_________________________________________________________________