…
1563/1563 [==============================] - 46s 30ms/step - loss: 0.1099 - accuracy: 0.9627 - val_loss: 1.3337 - val_accuracy: 0.6946 - lr: 8.0000e-04
Epoch 13/20























1563/1563 [==============================] - 46s 30ms/step - loss: 0.1082 - accuracy: 0.9618 - val_loss: 1.4607 - val_accuracy: 0.6906 - lr: 8.0000e-04
157/157 - 1s - loss: 1.3842 - accuracy: 0.7074 - 1s/epoch - 7ms/step
Test accuracy: 0.7074000239372253
Test loss: 1.3841862678527832
Model: "sequential_2"
_________________________________________________________________
 Layer (type)                Output Shape              Param #
=================================================================
 conv2d_14 (Conv2D)          (None, 30, 30, 32)        896
 batch_normalization_4 (Batc  (None, 30, 30, 32)       128
 hNormalization)
 max_pooling2d_4 (MaxPooling  (None, 15, 15, 32)       0
 2D)
 batch_normalization_5 (Batc  (None, 15, 15, 32)       128
 hNormalization)
 conv2d_15 (Conv2D)          (None, 13, 13, 64)        18496
 batch_normalization_6 (Batc  (None, 13, 13, 64)       256
 hNormalization)
 max_pooling2d_5 (MaxPooling  (None, 6, 6, 64)         0
 2D)
 batch_normalization_7 (Batc  (None, 6, 6, 64)         256
 hNormalization)
 flatten_2 (Flatten)         (None, 2304)              0
 batch_normalization_8 (Batc  (None, 2304)             9216
 hNormalization)
 dense_5 (Dense)             (None, 512)               1180160
 batch_normalization_9 (Batc  (None, 512)              2048
 hNormalization)
 dense_6 (Dense)             (None, 10)                5130
=================================================================
Total params: 1,216,714
Trainable params: 1,210,698
Non-trainable params: 6,016
_________________________________________________________________